…
2, 64, 4, stride=2, padding=1, bias=True),\n    nn.BatchNorm2d(64),\n    nn.ReLU(inplace=True),\n    nn.ConvTranspose2d(64, 128, 4, stride=2, padding=1, bias=True),\n    nn.BatchNorm2d(128),\n    nn.ReLU(inplace=True),\n    nn.ConvTranspose2d(128, 256, 4, stride=2, padding=1, bias=True),\n    nn.BatchNorm2d(256),\n    nn.ReLU(inplace=True),\n    nn.ConvTranspose2d(256, 512, 4, stride=2, padding=1, bias=True),\n    nn.BatchNorm2d(512),\n    nn.ReLU(inplace=True)\n)",
  "needimport": "import torch\nimport torch.nn as nn\nimport numpy as np\n\n",
  "test_results": {
    "ans1": "Sequential(\n  (0): Conv2d(1, 64, kernel_size=(4, 4), stride=(2, 2))\n  (1): LeakyReLU(negative_slope=0.2, inplace=True)\n  (2): Conv2d(64, 128, kernel_size=(4, 4), stride=(2, 2))\n  (3): LeakyReLU(negative_slope=0.2, inplace=True)\n  (4): ConvTranspose2d(128, 64, kernel_size=(4, 4), stride=(2, 2), padding=(1, 1))\n  (5): BatchNorm2d(64, eps=1e-05, momentum=0.1, affine=True, track_running_stats=True)\n  (6): LeakyReLU(negative_slope=0.2, inplace=True)\n  (7): ConvTranspose2d(64, 1, kernel_size=(4, 4), stride=(2, 2), padding=(1, 1))\n  (8): Sigmoid()\n)",
    "ans2": "Sequential(\n  (0): Conv2d(3, 32, kernel_size=(3, 3), stride=(1, 1), padding=(1, 1))\n  (1): ReLU(inplace=True)\n  (2): Conv2d(32, 64, kernel_size=(3, 3), stride=(1, 1), padding=(1, 1))\n  (3): ReLU(inplace=True)\n  (4): Conv2d(64, 128, kernel_size=(3, 3), stride=(1, 1), padding=(1, 1))\n  (5): ReLU(inplace=True)\n  (6): Linear(in_features=131072, out_features=1000, bias=True)\n  (7): ReLU(inplace=True)\n  (8): Linear(in_features=1000, out_features=10, bias=True)\n)",
    "ans3": "Sequential(\n  (0): Linear(in_features=100, out_features=256, bias=True)\n  (1): ReLU(inplace=True)\n  (2): Linear(in_features=256, out_features=512, bias=True)\n  (3): ReLU(inplace=True)\n  (4): Linear(in_features=512, out_features=1024, bias=True)\n  (5): ReLU(inplace=True)\n  (6): Linear(in_features=1024, out_features=2048, bias=True)\n  (7): ReLU(inplace=True)\n  (8): Linear(in_features=2048, out_features=4096, bias=True)\n  (9): ReLU(inplace=True)\n  (10): Linear(in_features=4096, out_features=8192, bias=True)\n  (11): ReLU(inplace=True)\n)",
    "ans4": "Sequential(\n  (0): Conv2d(1, 16, kernel_size=(5, 5), stride=(1, 1), padding=(2, 2))\n  (1): ReLU(inplace=True)\n  (2): Conv2d(16, 32, kernel_size=(5, 5), stride=(1, 1), padding=(2, 2))\n  (3): ReLU(inplace=True)\n  (4): Conv2d(32, 64, kernel_size=(5, 5), stride=(1, 1), padding=(2, 2))\n  (5): ReLU(inplace=True)\n  (6): Linear(in_features=50176, out_features=100, bias=True)\n  (7): ReLU(inplace=True)\n  (8): Linear(in_features=100, out_features=10, bias=True)\n)",
    "ans5": "Sequential(\n  (0): ConvTranspose2d(1, 32, kernel_size=(4, 4), stride=(2, 2), padding=(1, 1))\n  (1): BatchNorm2d(32, eps=1e-05, momentum=0.1, affine=True, track_running_stats=True)\n  (2): ReLU(inplace=True)\n  (3): ConvTranspose2d(32, 64, kernel_size=(4, 4), stride=(2, 2), padding=(1, 1))\n  (4): BatchNorm2d(64, eps=1e-05, momentum=0.1, affine=True, track_running_stats=True)\n  (5): ReLU(inplace=True)\n  (6): ConvTranspose2d(64, 128, kernel_size=(4, 4), stride=(2, 2), padding=(1, 1))\n  (7): BatchNorm2d(128, eps=1e-05, momentum=0.1, affine=True, track_running_stats=True)\n  (8): ReLU(inplace=True)\n  (9): ConvTranspose2d(128, 256, kernel_size=(4, 4), stride=(2, 2), padding=(1, 1))\n  (10): BatchNorm2d(256, eps=1e-05, momentum=0.1, affine=True, track_running_stats=True)\n  (11): ReLU(inplace=True)\n  (12): ConvTranspose2d(256, 512, kernel_size=(4, 4), stride=(2, 2), padding=(1, 1))\n  (13): BatchNorm2d(512, eps=1e-05, momentum=0.1, affine=True, track_running_stats=True)\n  (14): ReLU(inplace=True)\n)"
  }
}